checkpoints/ours_ewc/ours_ewc.pth (torch, 212157 bytes, 191 tensors)

weight f4 [5]
000000 00 00 80 3f 00 00 80 3f 00 00 80 3f 00 00 80 3f
       1.0 1.0 1.0 1.0
000010 00 00 80 3f
       1.0

bias f4 [5]
000000 00 00 00 00 00 00 00 00 00 00 00 00 00 00 00 00
       0.0 0.0 0.0 0.0
000010 00 00 00 00
       0.0

weight f4 [6, 8]
000000 64 0a c3 bf e4 97 3f bf ae db 27 bf 09 1f ce bf
       -1.5237546 -0.7484114 -0.6556958 -1.6103221
000010 1e f1 c9 bd 97 7c 1b bf ba 5b 7a bf f5 2e ce bf
       -0.098604426 -0.60736984 -0.97796214 -1.610808
000020 3c a7 36 bf 72 91 9a 3e 4d 89 46 bf a1 a3 81 be
       -0.7134893 0.3018909 -0.77553254 -0.2532015
000030 69 33 64 be 2d 2c d8 3f 0f 6e 6a 3e d6 4b f0 3e
       -0.22285236 1.6888481 0.22893547 0.46932858
000040 eb fc 31 bf 9a c8 94 bf d3 7a 33 3f 08 1d 4a 3e
       -0.6952655 -1.1623719 0.7010929 0.19737637
000050 87 48 5d 3f aa 8e 78 3e 18 40 29 bf 14 15 4f 3f
       0.8643879 0.24273172 -0.66113424 0.8089154
000060 b7 3a 8d 3f b2 fa 35 be 93 98 0f c0 38 5c b9 bf
       1.1033543 -0.17771414 -2.2436874 -1.4481268
000070 d1 f6 80 3d 3c 91 1e bf f4 eb 4b bf 8c 05 05 be
       0.062970765 -0.6194036 -0.7965691 -0.12990397
000080 66 52 f0 3f 6d 44 97 bd 1d 40 23 3e 8c 6d 46 bf
       1.8775146 -0.07386098 0.15942426 -0.77510905
000090 2b 63 4a 3e 35 aa 34 3d 74 0e 1c 3e b2 ae f2 be
       0.19764392 0.044107635 0.15239888 -0.47398907
0000a0 04 c1 df bd 69 66 96 3e f3 d2 1f be e0 4c fa bc
       -0.10925487 0.29375008 -0.15607814 -0.030554235
0000b0 60 be 16 40 f6 fd 84 bf 60 c6 c9 3f 27 c7 20 bf
       2.3553696 -1.0390003 1.5763664 -0.6280388

weight f4 [8, 8]
000000 67 5f 0e 3f 66 a7 0a 3f b6 51 9b be 6b 92 5c 3d
       0.5561432 0.5416168 -0.30335778 0.053850573
000010 d5 b8 99 3f 9e d0 7b 3f e4 80 9e 3e d7 1f ce bf
       1.2009531 0.983652 0.3095771 -1.6103467
000020 ac d7 4b bf 3c 74 20 be d5 8a 32 bf c7 e6 5f bf
       -0.79625964 -0.1566934 -0.6974309 -0.87461513
000030 50 98 07 be 0d b8 32 3e 17 f3 73 bf 40 73 b6 3e
       -0.13241696 0.17453022 -0.952928 0.35634804
000040 41 76 34 be cd 90 4d 3f 3b 36 d7 be f1 36 97 3f
       -0.17623235 0.80299073 -0.42033562 1.1813642
000050 f8 c8 6a 3f 9a aa 9b 3f 51 1f f5 bf ed f9 27 be
       0.91712904 1.2161438 -1.9150182 -0.16403933
000060 41 82 1b bf 5a 6b 89 bf aa b9 8c 3f 3a ad 0c 3f
       -0.60745627 -1.0735886 1.099416 0.5495182
000070 cd 4d 08 c0 75 1f 8d 3f 79 bf e9 3f 65 7e 5d 3f
       -2.1297486 1.1025225 1.8261558 0.8652099
000080 a2 e0 a1 3f 3a cd 08 c0 b3 32 8c 3e 8d 89 82 bf
       1.2646677 -2.137526 0.2738243 -1.0198227
000090 c9 5a 90 bf f7 7c f5 3e 76 ff a6 be 7c 80 fa 3f
       -1.1277705 0.47946903 -0.32616776 1.957046
0000a0 95 7b b7 bf ea 24 1f bf fc b1 d0 bf c5 3f 35 3e
       -1.4334589 -0.621657 -1.6304317 0.17700107
0000b0 40 4b 05 bf 6e 20 02 3d a1 68 7e bf c6 56 0b 3f
       -0.5206795 0.03176921 -0.993784 0.5442928
0000c0 55 c8 36 3f 33 0c 10 3f f0 0f cc be 45 4a 53 bf
       0.7139943 0.56268615 -0.3985591 -0.825352
0000d0 90 66 67 3f 31 c2 90 3f d8 6c bb be dd b3 c1 be
       0.9039087 1.1309263 -0.3660648 -0.37832537
0000e0 10 83 13 3e 30 88 68 bf bd 53 3d 3e 59 7a 32 bf
       0.14405465 -0.90832806 0.18488975 -0.6971794
0000f0 62 55 4e 3f 3b 1b b9 3f 38 a2 6e 3c 98 b7 87 be
       0.80599034 1.4461435 0.014565043 -0.26507258

weight f4 [8, 8]
000000 a6 3c 5e 3f 22 a7 54 be 26 59 31 3f 58 69 a2 3f
       0.8681129 -0.20766881 0.69276655 1.2688398
000010 49 37 14 be 0c 2c 26 bf 4e 26 0d 3d 22 91 6b bf
       -0.14474215 -0.6491096 0.03446036 -0.9201833
000020 f1 70 14 bd 9e d3 e9 be 42 cd 25 3f 14 1d 43 bf
       -0.03624052 -0.45669264 0.64766324 -0.76216245
000030 d1 c9 1e c0 49 f8 db be a1 dc 30 3f 39 d8 8c 3f
       -2.481068 -0.42962864 0.69086653 1.1003486
000040 6a 53 06 3f 7c 04 4d 3f ac 7a 9f 3f 24 e2 6c 3e
       0.5247103 0.8008497 1.2459311 0.23133141
000050 1b c4 01 bf 57 18 94 bf 00 a8 99 3e 25 2c c7 bf
       -0.5068986 -1.1569928 0.30010986 -1.5560347
000060 7e a3 d0 be 3b 0d fc be 26 e6 8c 3f ec bc bd bf
       -0.40749735 -0.49228844 1.1007736 -1.4823279
000070 a7 67 3c bf dc 32 21 3f 4d 30 81 bf 32 f7 34 bf
       -0.7359566 0.6296823 -1.0092865 -0.7068969
000080 4f ff e8 3f be 27 41 bf 52 fd 26 3f 89 31 5b bf
       1.8202914 -0.75451267 0.65230286 -0.8562246
000090 a3 a8 74 3f d8 66 8c be 14 37 ba bd 20 86 42 3f
       0.9556982 -0.27422214 -0.090925366 0.7598591
0000a0 50 b4 fd 3e f4 1b 9c 3f 51 1b 0e 40 d9 67 e8 3f
       0.4955163 1.2196031 2.2204173 1.8156692
0000b0 9b 1f 8c 3f c8 3d 0a 40 90 01 70 3f d9 bf 58 be
       1.0947145 2.1600208 0.93752384 -0.21166934
0000c0 77 bd 01 bf c7 d9 ed 3e 94 06 7a bd 4d 2f 9f bf
       -0.50679725 0.46455213 -0.06104143 -1.243631
0000d0 f1 63 e3 3e 53 e6 5e 3f 26 a4 93 3f 12 a5 13 3e
       0.44412187 0.87070197 1.1534469 0.14418438
0000e0 47 12 d1 3f 48 bc ab be ed 96 3f 3f 3e 88 32 3f
       1.6333703 -0.33542085 0.7483967 0.6973914
0000f0 bf 9d 38 3f 23 7f e1 3f f1 d9 21 bf 73 1e d2 be
       0.721157 1.7616924 -0.6322318 -0.41038856

weight f4 [32, 1]
000000 e0 d5 93 be d6 84 e0 bd ed a6 75 bf 38 fc f4 be
       -0.2887411 -0.109628364 -0.95957834 -0.47848678
000010 23 78 0a 3f aa e5 78 be 78 a6 7e 3f 85 5c 4d 3f
       0.54089564 -0.2430636 0.9947276 0.802193
000020 62 c7 3f bd 63 50 2b bf 9a 19 1c 3f f5 18 9e 3e
       -0.046821006 -0.66919535 0.60976565 0.30878416
000030 85 eb 25 bf 66 0f 26 3f 43 c7 1b 3f 0f ac 62 3f
       -0.648125 0.64867246 0.60850924 0.8854379
000040 57 0c 0f bf 81 51 2a be 6e af 9e bc bc fd 13 3e
       -0.55878204 -0.16632654 -0.01937076 0.1445226
000050 d1 e6 41 bf 1e 35 35 bf ef d2 0a 3f 54 dc 71 be
       -0.7574282 -0.70784175 0.5422811 -0.23619205
000060 c4 7d f9 3e e0 7f 69 3d 58 3b a7 3e 8e db 5f 3e
       0.48728764 0.057006717 0.32662463 0.21861097
000070 c6 48 b9 3e 54 25 fd 3e be 9f 6c bf f8 6c 00 3f
       0.36188334 0.49442542 -0.9243125 0.50166273

bias f4 [32]
000000 5a fd 33 bf c2 24 41 bf 16 f0 71 3d c4 b8 2c be
       -0.7030846 -0.7544671 0.059066854 -0.16867357
000010 98 c5 16 3f 20 40 14 bf dc c4 63 bf 4e d7 39 3f
       0.58895254 -0.57910347 -0.8897226 0.72594154
000020 14 d5 17 be a8 6e 10 3f a7 c5 a3 3e 95 5b 40 bf
       -0.14827377 0.5641885 0.31986734 -0.75139743
000030 4d 81 4f 3e 12 40 74 3e 39 14 2b bf 6e 70 f3 be
       0.20264168 0.23852566 -0.6682773 -0.47546715
000040 14 b4 ad 3e d0 36 39 3e 7c c7 d9 be eb bf 9b be
       0.3392645 0.18087316 -0.42535007 -0.3041986
000050 2d 1f 6a 3f 3f 39 3f be 02 c3 10 3f 66 2d dd 3e
       0.9145382 -0.18674181 0.5654756 0.431987
000060 57 be 25 bf cc b2 59 bf d3 28 76 3f fa 84 55 3d
       -0.6474356 -0.8503845 0.9615604 0.05212877
000070 32 e9 2f 3f b8 70 55 3e 57 c4 a3 3e 3f 9f 3f 3f
       0.687152 0.2084378 0.31985733 0.74852365

weight f4 [8, 32]
000000 d9 a2 2b 3e 93 3a f0 bd 2d 26 c3 3c 1a d8 08 3e
       0.1676134 -0.11729922 0.023821915 0.13363686
000010 a5 c1 04 3e 66 e6 e0 3d 64 db 01 be 29 d0 00 be
       0.12964495 0.10981445 -0.12681347 -0.12579407
000020 38 f0 da bd 59 06 c4 3c 25 5f 35 3e 15 ee e1 bd
       -0.10690349 0.023928808 0.17712076 -0.11031739
000030 9c 70 c4 3d 3b 0f c7 bd f1 f8 28 be 1e e9 15 bd
       0.09591791 -0.09719702 -0.16501214 -0.03659927
000040 1c 1c d4 3d 04 cf 29 3e e4 d3 e0 bd 00 8b 22 3d
       0.10356924 0.16582876 -0.10977915 0.039683342
000050 be f2 1d 3e 09 6b f3 3d fd d5 e4 3d 15 64 02 3e
       0.1542463 0.1188565 0.111736275 0.12733491
000060 71 8a e7 3d 44 04 3b 3d 3e 14 f4 bd 75 80 17 be
       0.113057025 0.045658365 -0.119179234 -0.14795096
000070 2b 71 a2 bd 7f a5 a2 bc ed 5f da bd 11 d8 87 3d
       -0.07931741 -0.019854305 -0.10662828 0.06633008
000080 ac 14 60 3d 96 f2 23 bd c9 60 87 3d 92 9c 62 3d
       0.054707214 -0.04002627 0.06610257 0.0553251
000090 69 3f da 3d aa cc f3 3d 68 f8 79 bd 83 7f 2f 3e
       0.10656626 0.11904271 -0.061027914 0.17138486
0000a0 a9 68 a7 bc 77 5d 01 bc 69 20 2c be 5b 34 ec bd
       -0.020435648 -0.007895819 -0.16809238 -0.115334235
0000b0 cc 43 d7 bd 3d 51 9d bd 3d bf fe 3d 79 9f 70 bd
       -0.10510978 -0.076815106 0.124388196 -0.058745835
0000c0 5c 23 09 be c3 8f 87 3d af d0 67 3d dc 52 e7 3d
       -0.13392395 0.06619217 0.0565955 0.11295101
0000d0 ef 0d bf bd c9 91 15 3d 5e 8d 86 bd 54 08 2a bd
       -0.093288295 0.036515985 -0.065699324 -0.04151185
0000e0 d0 ae 11 be 78 fe a4 bd d0 46 64 bd f3 68 98 3d
       -0.14226842 -0.080563486 -0.055731595 0.074418925
0000f0 7b 38 fc 3c b9 d9 2d 3d 08 c8 32 3e ad f1 2e 3e
       0.03078865 0.042443965 0.17459118 0.1708438
000100 0c ea f6 3d 97 72 b8 3b 3e e3 f6 bd 39 3f 0f 3e
       0.1205636 0.0056288945 -0.12055062 0.13988961
000110 02 38 2e bd d5 23 6a bc 19 81 1a be 72 3b 08 bd
       -0.042533882 -0.01429077 -0.1508831 -0.033259816
000120 52 7f e9 bd 27 19 28 3e 3c d6 1a be 8c 95 0b be
       -0.114012375 0.16415845 -0.15120786 -0.13631266
000130 96 ed 8b bb 96 85 c0 bd 5a 8b 84 3d f1 ae 88 bd
       -0.004270266 -0.094004795 0.06471892 -0.066739924
000140 ca 7f a6 bd 46 4d 40 3c 38 08 03 3e ee 92 fb bd
       -0.081298426 0.011737173 0.12796104 -0.12283884
000150 00 89 ad 3d 5d 24 ec 3d ea c4 32 3e 82 dd f9 bd
       0.08473396 0.11530373 0.17457929 -0.122004524
000160 61 84 35 3d d8 d7 05 be 09 47 1c 3e 6e 48 89 bd
       0.0443157 -0.13070619 0.15261473 -0.06703268
000170 c0 86 dd 3d 43 8c e0 3b e4 34 45 bc a9 a7 81 bb
       0.10816717 0.006852658 -0.012036536 -0.003956754
000180 44 2a f6 3c 90 a7 aa 3d f7 e7 d9 3c 45 af 55 3d
       0.03004945 0.08332741 0.026599867 0.052169103
000190 ca 8e 24 be 38 df 03 3e c2 51 1c 3e 82 e8 13 3e
       -0.16070095 0.1287812 0.15265563 0.14444163
0001a0 61 ce 05 3e e1 68 04 be ba 75 89 bd ae 0f 1e 3e
       0.13067009 -0.12930633 -0.06711908 0.15435669
0001b0 89 a8 0b be 51 a4 22 3e 70 e7 0f be d9 f0 00 be
       -0.1363851 0.15882994 -0.1405313 -0.12591876
0001c0 2e 68 ad 3d 50 d7 03 be a8 e0 25 bd 6b 1d 02 3e
       0.08467136 -0.12875104 -0.040497452 0.12706535
0001d0 fc 96 0d 3e 88 65 29 3e 37 d8 19 bd e6 79 0e be
       0.13827127 0.16542637 -0.037559714 -0.13913688
0001e0 61 a7 30 3e 3b 3d 1a bd 66 7d 98 bd 47 67 2a 3d
       0.1725135 -0.03765605 -0.07445793 0.0416024
0001f0 f3 58 00 be 8e c2 ea 3d 4d 4f df 3d e0 61 11 be
       -0.12533931 0.114628896 0.10903797 -0.14197493
000200 11 ad 14 be 3b b1 7d bc 28 81 94 3d 91 f6 e0 bb
       -0.14519145 -0.01548415 0.07251197 -0.0068653305
000210 a5 d2 ba bd 0b 6d 84 3b 86 92 28 be ea 83 01 be
       -0.091222085 0.0040413192 -0.16462144 -0.12647977
000220 fa fd f0 bd a0 4f 13 3e 02 42 1e 3e 43 7d 6f bd
       -0.11767192 0.14385843 0.15454867 -0.05846907
000230 cb 2a cb 3b 5e b7 9f 3d 52 36 ba 3c 7f 2c b2 bd
       0.0062001697 0.077986464 0.02273098 -0.08699893
000240 30 45 cd 3d 88 0a db 3d 17 d9 27 bc 0c 49 a5 bc
       0.10022962 0.10695368 -0.010244629 -0.020176433
000250 19 be 22 3e fb 70 1c 3e d9 7d d0 bd 89 5a 2f 3e
       0.15892829 0.15277474 -0.101802535 0.1712438
000260 f2 a3 39 3d 95 79 f0 bd ab c5 c2 3d 46 56 07 be
       0.045322366 -0.1174194 0.095103584 -0.13216504
000270 93 8e 25 3e 38 d7 ea bd ac b5 45 3d f4 ce 55 3d
       0.16167669 -0.11466831 0.04826896 0.05219932
000280 ee 37 2c 3d 1b 22 16 3e 18 d3 99 bd 4f 54 9c bd
       0.042045526 0.14661448 -0.07510966 -0.07633268
000290 62 7c 1e be d4 b6 ed bb 45 8f ae bd df 7e b4 3b
       -0.15477136 -0.007254461 -0.0852342 0.0055082883
0002a0 31 6d 14 bd 7a 64 69 3d 39 06 1b 3e c8 94 4f 3d
       -0.036236946 0.056980588 0.15139093 0.050679
0002b0 5b 21 70 bd 8c b7 b4 bd 89 6c 1f be 3a d0 16 3e
       -0.05862556 -0.08824071 -0.15568747 0.1472787
0002c0 71 03 10 bd 35 52 0b 3d 90 43 d6 3b 52 ca e9 bd
       -0.035159532 0.034013946 0.006538816 -0.11415543
0002d0 52 79 c8 3d e1 65 c7 3d ce b3 ef 3b 11 21 d1 bd
       0.09788765 0.09736229 0.0073151356 -0.10211385
0002e0 0b f6 9c bd 2b 88 1f 3b 7c 2d d2 bd 23 07 cd bd
       -0.076641165 0.0024342637 -0.10262582 -0.10011127
0002f0 0a 48 e5 bc 24 ad 56 bd 87 db 2a 3d 4c e7 44 bd
       -0.027988452 -0.052411214 0.041713264 -0.048072144
000300 10 f6 bf bc 13 2d 8a bd 32 a0 23 be 57 aa 1f 3e
       -0.023432761 -0.067468785 -0.15979078 0.15592323
000310 bc 2d 10 3d e5 dc 21 3e c4 30 e3 bc ea a8 30 bd
       0.035199866 0.15806921 -0.027733214 -0.04312984
000320 17 2b 2a be 65 de 85 bd fb b3 ed 3d a5 5a 30 be
       -0.16618 -0.06536559 0.11606594 -0.17222078
000330 d2 18 76 bd 38 fc db 3d 09 0b d2 3d 2d 1c 87 3d
       -0.060082264 0.10741466 0.10256011 0.06597171
000340 2c 32 08 bd dd da 3e bc f4 7f 09 bd 24 0d 84 bd
       -0.033250973 -0.011648861 -0.03356929 -0.06447819
000350 cd a0 9a 3d ce 6a 6f bd 3d 6c c8 bd 88 56 2b 3d
       0.075502016 -0.058451466 -0.0978627 0.04183057
000360 ce 46 02 be 44 85 1a bd 22 73 bc 3d df 77 86 3d
       -0.12722322 -0.03772475 0.09201647 0.06565832
000370 4f cb 1b 3e 27 46 f7 bd 63 f6 56 3b f4 34 4f bd
       0.15214275 -0.120739274 0.0032800667 -0.05058761
000380 cc 7b ca bd 93 a7 cb bd 04 9d 3d 3d 07 f1 a5 3c
       -0.09886894 -0.099440716 0.04629232 0.020256532
000390 81 64 b5 bd 21 2c ff bd 2e 8e 14 be eb 12 33 3e
       -0.0885706 -0.12459589 -0.14507362 0.17487685
0003a0 74 d1 f6 bc 0a 40 20 bd ed 00 82 bd e1 fa b1 bd
       -0.030129172 -0.039123572 -0.06347833 -0.086904295
0003b0 6e bc 23 be df 93 d1 bd 66 3f e0 3d f2 e6 23 3d
       -0.15989849 -0.10233282 0.10949592 0.04001517
0003c0 9d 3b 78 bd 1e 3a 85 bd 51 43 e7 3d f8 0a 04 3e
       -0.060603727 -0.065052256 0.112921365 0.12894809
0003d0 16 2e 30 3e 6b 6a 5a 3d 82 48 b2 3d 68 26 4c bc
       0.1720508 0.053324144 0.08705236 -0.012460329
0003e0 13 95 d0 bd da 54 31 be c5 03 e0 3d e5 57 c7 bc
       -0.10184684 -0.17317525 0.10938219 -0.024333904
0003f0 04 38 98 3d bb a2 26 3c 67 24 27 be 56 25 ae bd
       0.07432559 0.010170634 -0.1632248 -0.08503215

bias f4 [8]
000000 d3 b3 52 3d 56 99 19 bd 02 0b 2d be a0 c6 76 3d
       0.051441025 -0.03749975 -0.1689873 0.060248017
000010 d8 ff a6 3b df 6e 6f bd d3 c0 95 3d 3c f1 1f 3d
       0.005096417 -0.058455344 0.07312169 0.03904842

weight f4 [32, 1]
000000 79 61 bd be 61 81 65 3f c3 f1 ff 3e 7d 89 01 3e
       -0.36988428 0.8965054 0.49989137 0.12650104
000010 6f 0f 43 be 9f 46 59 bf e5 2d 45 3f e1 53 84 be
       -0.19048856 -0.84873384 0.77023154 -0.25845245
000020 6e fc 24 bf 58 3c 24 3f d4 d3 b5 3e ba bb 7b 3e
       -0.6444768 0.6415458 0.35513175 0.24583331
000030 4a 07 4b be 15 f5 9f be cd 7a 2f 3e cf 88 46 3f
       -0.19827 -0.3124167 0.17136689 0.77552503
000040 ef d2 10 3e 28 d4 f2 be fc bc 7e 3f 78 31 af 3c
       0.14142965 -0.47427487 0.9950712 0.021385893
000050 7e e8 49 3f 38 d7 77 3e 55 e7 65 3f 94 25 14 3f
       0.7887038 0.24203193 0.8980611 0.5786984
000060 91 12 02 bf 18 4a 34 3f 78 99 a7 3b 85 ee 4d bf
       -0.5080958 0.7042556 0.0051147304 -0.80442077
000070 8d d2 54 be b2 7d 67 bf 73 02 05 bf 65 f3 34 bf
       -0.20783444 -0.9042617 -0.5195686 -0.7068389

bias f4 [32]
000000 f8 a0 2e 3f 01 f1 58 be c6 b6 32 be 62 72 f4 3e
       0.6821437 -0.21185686 -0.17452535 0.47743517
000010 c9 3f d1 3e 23 7f 28 bf 53 c2 bb 3e a7 65 da 3e
       0.40868977 -0.65818995 0.36671695 0.4265568
000020 c7 f9 4b bf 0a ff 5e 3f 4c c3 1b bf a1 09 c9 be
       -0.79678005 0.8710791 -0.60844874 -0.3926516
000030 1c da 52 bf a5 85 69 3f cc cb 44 3e 46 06 58 3f
       -0.8236406 0.9121955 0.19218367 0.8438457
000040 2e 20 82 3d 24 ad 0a 3f d6 93 a2 be 12 38 4c bf
       0.06353794 0.5417044 -0.31753415 -0.79773057
000050 2c 90 22 3e 1c 0f ba bd e0 31 cb bd 5c 89 fa be
       0.1587531 -0.09084913 -0.09921622 -0.48932922
000060 8d b0 9b 3c c7 fa 93 3e 9e 96 b9 3e 1f c4 4d bf
       0.019005084 0.28902265 0.36247724 -0.8037738
000070 d3 3e f8 3e e2 17 d6 3d 50 02 31 3f 3a 7c 34 3f
       0.4848543 0.10453774 0.69144154 0.70502055

weight f4 [8, 32]
000000 32 b7 0c be d9 a0 2f 3e b8 36 30 be 99 c1 d3 3d
       -0.13741758 0.17151202 -0.17208374 0.1033966
000010 0e 2a 69 3c 51 e1 ae 3d 47 27 c0 bd 8c 4f dd 3d
       0.014231218 0.085390694 -0.093824916 0.10806188
000020 0c b6 af bd cb 2d 1e be a6 93 72 3d 67 69 c9 3d
       -0.085796446 -0.15447156 0.05922284 0.09834557
000030 64 6d 33 3e 74 b2 88 bc bc f0 2f 3e f8 32 ec 3d
       0.17522198 -0.016686656 0.17181677 0.11533159
000040 1f f0 af bd d3 c9 09 be 98 a5 ce 3d 6f 57 c6 bd
       -0.08590721 -0.13455896 0.10090178 -0.096846454
000050 88 aa a9 3d 88 39 19 be cb dc 05 3e 42 32 60 3d
       0.082844794 -0.14963353 0.13072507 0.05473543
000060 ec df 97 bc 95 a5 a9 3d 9d 15 fe bd f6 38 17 bd
       -0.018539391 0.082835354 -0.12406466 -0.036919557
000070 ce d3 66 3b 86 87 cd bd 12 ad 31 bd 2e 75 98 bd
       0.003522146 -0.10035615 -0.043377943 -0.07444225
000080 a4 b4 2a 3e 7d ec 17 3e ad 44 1a 3e 52 1f 12 3e
       0.16670471 0.14836307 0.1506526 0.1426976
000090 dd 28 2f be cc 0d 6b 3d e4 c0 81 3d 89 91 06 be
       -0.17105432 0.057386205 0.06335619 -0.13141455
0000a0 44 37 8f 3d 2a 1a c8 bd ba 44 e6 3c 1b a2 69 3d
       0.06992963 -0.097706154 0.028108943 0.05703936
0000b0 44 31 1c 3e ad 89 c1 bd a0 3f 10 be 4d a5 25 3e
       0.15253168 -0.09450088 -0.14086771 0.16176338
0000c0 a7 48 94 3d 43 5e ac 3d bb 39 7d 3d db 23 80 bd
       0.0724042 0.084164165 0.061822634 -0.06256839
0000d0 c1 14 d6 3d 1c e0 1f be bc b6 ba 3c aa f7 9f 3d
       0.10453177 -0.15612835 0.022792213 0.0781091
0000e0 84 c7 f3 3d ce 77 b8 bd 7d 52 f8 bd cf 1f 84 3d
       0.11903289 -0.09007226 -0.121251084 0.064513795
0000f0 cf 8e 11 be 66 37 18 be 3a 95 24 be 46 24 b3 bd
       -0.14214633 -0.14864883 -0.1607255 -0.08747153
000100 3c 1b 03 bd 36 cc d2 bd 43 7c 95 bd 0e 7f 1e be
       -0.032008395 -0.102928564 -0.07299092 -0.15478155
000110 9e 10 e2 3d be b7 1e bd 65 d4 e0 bd f1 99 43 3d
       0.11038326 -0.03874945 -0.10978011 0.04775423
000120 1c 9a 05 be 52 7e 00 3e 94 2a d0 3d c1 3d 30 be
       -0.1304707 0.12548187 0.10164371 -0.17211057
000130 40 15 0e be c8 26 eb bd e3 63 c0 bd 85 21 c3 3c
       -0.13875294 -0.11482006 -0.09394052 0.023819694
000140 a4 33 31 be 11 6d 04 be 18 eb a8 3d 96 21 6d bd
       -0.17304856 -0.1293223 0.082479656 -0.05789336
000150 05 78 8c bd 30 f4 13 be 09 52 96 3d 6e 39 69 3c
       -0.068588294 -0.14448619 0.07339866 0.014234884
000160 4e 6b 88 bd 7c 1b da bd 93 1d 21 3d 67 0d 4c 3d
       -0.06661092 -0.106497735 0.039334845 0.04981747
000170 4a 3d a4 3d e7 33 5e 3d 69 bb ce bc c7 5a 0a be
       0.080195025 0.054248717 -0.025235849 -0.13511191
000180 19 dd e2 3d 04 d8 56 bb 52 33 f4 bd 58 4b 1a 3e
       0.11077327 -0.0032782564 -0.11923851 0.15067804
000190 3a 3d c6 3d 3f 0b 10 be 30 6a b8 bd 1d 98 7d bd
       0.09679647 -0.1406679 -0.09004629 -0.061912645
0001a0 b5 80 d4 bd e9 70 a5 3d 78 21 01 be 4e 91 26 3e
       -0.103761114 0.080781765 -0.12610424 0.16266367
0001b0 81 a2 95 bd f6 15 d2 3d 42 58 8b 3b 98 d4 a2 bd
       -0.07306386 0.10258095 0.0042524645 -0.07950705
0001c0 20 23 ee 3d aa e9 0b be 20 26 c3 bd 08 91 ad 3c
       0.11627793 -0.13663355 -0.09528756 0.02118732
0001d0 6e c8 0d 3e af b6 9e bd 06 0f e0 bd 54 b9 ea bd
       0.13845989 -0.07749688 -0.109403655 -0.1146113
0001e0 c8 2c a3 bd e8 ab 80 bd 58 de 2f bd 2c 83 d1 bd
       -0.07967526 -0.062827885 -0.042936653 -0.10230097
0001f0 d2 15 5b 3d 1f 42 a2 b9 b5 20 f0 bd 79 53 d2 bd
       0.053487606 -0.00030948312 -0.11724988 -0.102698274
000200 52 b4 12 3d 5c 10 88 bb 59 e5 fc 3d b5 e4 e8 bc
       0.035816498 -0.004152341 0.12348432 -0.028429369
000210 e4 4a 14 be d4 6d 07 be 1a 38 5b bd 91 f6 26 bd
       -0.14481694 -0.1322549 -0.0535203 -0.040762488
000220 8b 9e 99 3c c0 13 29 bd 82 93 85 3d b8 c2 76 bd
       0.018752357 -0.0412786 0.065222755 -0.060244292
000230 39 da 04 3e b8 a9 1f 3d 34 4c 65 bd 0b a4 1f 3e
       0.1297387 0.038980216 -0.055980876 0.15589921
000240 cb 27 32 3d d2 4d f9 bd e5 ce cc bd c7 fd e2 3d
       0.04349498 -0.12173046 -0.100003995 0.110835604
000250 bc fe a1 3d 39 ac 0b 3e 2a 33 79 bc 6c ed f9 3d
       0.07909915 0.13639916 -0.015209952 0.12203488
000260 be ca b0 3d 99 36 59 3d 72 40 2e bd c4 f8 2c 3e
       0.0863242 0.053030584 -0.04254193 0.16891772
000270 49 e3 0b 3d 9c 39 41 bd 15 fe 86 bb 2c 4e 30 3e
       0.034152303 -0.04717408 -0.0041196444 0.1721732
000280 a7 a7 f6 3d 70 ac 39 bc d9 43 33 3e 38 87 a2 3d
       0.12043696 -0.011332616 0.1750635 0.07935947
000290 cf 3b bd bd c1 0d 23 be 68 f9 d5 3d f0 81 2b 3e
       -0.09239923 -0.15923215 0.10447961 0.16748786
0002a0 70 b7 cf bd ae 43 98 3d 0f 96 f6 3b a0 41 15 bd
       -0.1014241 0.07434784 0.0075252126 -0.036439538
0002b0 9b df 44 bd e9 76 50 3d d0 c7 26 3d 50 17 f8 3d
       -0.04806481 0.05089465 0.0407179 0.121138215
0002c0 0a 1d 88 3d fc 38 a8 3d 7b 7d 21 3e 65 74 61 3d
       0.06646164 0.08213994 0.15770523 0.055042643
0002d0 cb 5a e5 3c 27 2e 80 bd ed 8e 06 3e 40 45 e4 3c
       0.027997395 -0.06258803 0.1314046 0.027865052
0002e0 9e c2 ec 3d 9d 96 30 3e 7a d9 1a bd 02 1b 01 3e
       0.11560558 0.17244954 -0.037805058 0.12607959
0002f0 d8 02 0c bd 91 0f 25 3e 83 37 10 3e 19 91 7c bd
       -0.0341824 0.1611922 0.14083676 -0.061661813
000300 02 da ac 3b 87 dd a0 bd a7 1c 95 bd da 4c 18 bd
       0.005275012 -0.07854753 -0.072808556 -0.037182666
000310 dc 55 19 bb da f8 75 bd e6 57 2c be 7c f6 dc bd
       -0.0023397123 -0.060051776 -0.16830406 -0.10789201
000320 9b d0 5d bc d1 fe 6c bd 16 72 06 3e 2e da 12 3e
       -0.013538505 -0.0578602 0.13129458 0.14341041
000330 01 a1 e6 3d 4a b7 9d 3d 94 f7 10 be ad 8a 29 3e
       0.11261178 0.07700975 -0.14156944 0.16556807
000340 aa f9 20 be c7 7f 6f bd be c0 00 be 85 2e 82 3d
       -0.1572024 -0.058471467 -0.12573525 0.06356529
000350 00 13 18 be f5 28 b5 bd 10 c8 e8 bd df df e0 bd
       -0.14850998 -0.088457026 -0.11366284 -0.109802
000360 4a 9d a5 bd 60 77 30 3e 43 58 81 bc 03 27 63 3d
       -0.08086641 0.17233038 -0.015789157 0.055457126
000370 ea e0 34 be d8 a0 22 3e e2 89 20 bd c6 f0 25 be
       -0.17663923 0.1588167 -0.039193995 -0.16205129
000380 35 fe fc 3d 0e d2 48 bd 1a 0c 23 3e e7 6b f2 bd
       0.12353174 -0.04902845 0.15922585 -0.11836987
000390 9d 4d 26 be 88 32 06 be e0 f6 9e 3d e9 5e 94 bc
       -0.16240545 -0.13105214 0.077619314 -0.018111663
0003a0 06 ee 25 be d7 06 0d 3d 29 9b 38 bc 0e 06 80 3d
       -0.1620408 0.03443035 -0.011267462 0.06251155
0003b0 e5 26 b8 bd 97 f0 fe bd 78 16 fa 3d ef df aa bd
       -0.089917935 -0.124482326 0.12211317 -0.08343493
0003c0 f7 50 00 3e b5 84 14 3e 24 d2 ff bd c4 e7 a6 bd
       0.12530886 0.14503749 -0.12491253 -0.081496745
0003d0 4e f7 aa 3c 28 00 2c be e8 ae 59 3d 46 8e 99 bd
       0.020869877 -0.16796935 0.05314532 -0.0749784
0003e0 f7 fc 9c bd 1d 26 0b be 1d da ac 3d 10 1d e3 bd
       -0.07665437 -0.13588758 0.08440039 -0.110895276
0003f0 04 ee 0e be e7 5a 37 bd 2c 07 c6 bd 83 38 2e be
       -0.13957983 -0.044764426 -0.09669337 -0.17013745

bias f4 [8]
000000 41 8d 95 3d 0c 5f 8d bd b1 92 00 3e 4f 38 fb 3d
       0.07302333 -0.069028944 0.12555958 0.122665994
000010 a0 38 ea bd d1 81 cf bd e4 42 83 bd bb 8b d7 3d
       -0.114365816 -0.101321824 -0.06409243 0.10524698

weight f4 [32, 1]
000000 06 f9 13 bd 40 e6 b6 be a0 fe 1e 3f 3b 35 73 3f
       -0.03612616 -0.35722542 0.62107277 0.950031
000010 f5 9c 3d 3f 6d 51 43 bf dc f8 52 be a6 1d 46 be
       0.7406762 -0.7629612 -0.20602745 -0.19347247
000020 d5 e7 5a 3f 87 fe 03 bf 37 52 12 bf e7 d4 62 3c
       0.8551 -0.5156025 -0.571567 0.013844705
000030 14 22 6f be 20 ec c0 3e 0d 40 f5 3d e1 47 19 bf
       -0.23352844 0.3768015 0.11975107 -0.59875304
000040 af b5 39 3f ea cb 1f 3f 87 a1 5e 3e 94 42 67 bf
       0.7254285 0.62420523 0.21741305 -0.90335965
000050 a7 75 f1 3e a0 8b 2a 3f a9 ae 8d 3e 82 f5 c4 be
       0.47160074 0.666193 0.27672318 -0.38468558
000060 6a 58 89 3d ce ad c4 be e5 8a 70 3f 68 bf 76 3f
       0.06706317 -0.38413852 0.93961936 0.9638581
000070 30 a6 ee bd a4 cc 2b bf 0f 27 16 3f 3b 19 03 3f
       -0.116527915 -0.6710913 0.5865335 0.51210374

bias f4 [32]
000000 64 22 08 3f 02 9e 40 bf b5 76 ae 3e f6 99 d9 be
       0.53177476 -0.752411 0.3407494 -0.42500275
000010 c1 a2 60 bf 52 2f 33 bf 56 ec d9 3e 66 82 c0 3e
       -0.8774834 -0.6999408 0.42563123 0.37599486
000020 30 3a 60 bf b1 b6 10 3f 73 b2 43 3f 1a c8 42 3f
       -0.8758879 0.56528765 0.76444167 0.7608658
000030 a7 f9 10 3f 81 72 22 be ed 71 2b 3f f0 df 48 3f
       0.5663094 -0.15863992 0.6697071 0.784667
000040 af 04 05 3f 22 ab 37 bf 3e 7d b3 be ab 5b 4a 3f
       0.5196027 -0.717455 -0.3505649 0.79046124
000050 13 b6 42 3f 80 cb 23 3f b5 d6 d6 be db ab 4c be
       0.76059073 0.6398239 -0.41960683 -0.19987433
000060 34 b6 3e bf ec e2 11 bf e7 0a 44 3f 0c 8a 52 bf
       -0.7449677 -0.5698688 0.76579136 -0.8224189
000070 d2 0a 7d be 57 8f 57 3e 6b 05 1a bf c4 78 70 3e
       -0.24711159 0.21050774 -0.6016452 0.23483568

weight f4 [8, 32]
000000 3a 2e ef bc 94 c7 90 3d b4 25 09 be df c1 d5 3c
       -0.029196847 0.070693165 -0.13393289 0.026093422
000010 c4 63 23 be c0 44 dd 3d 0b 4f 2e 3e 98 47 84 bd
       -0.15956026 0.10804129 0.1702234 -0.06458968
000020 c0 6a e3 3c 82 c5 bd bd 0b cb ea bd 78 23 b8 bd
       0.027760863 -0.09266187 -0.114645086 -0.0899114
000030 ad 67 af bd 98 64 10 3d e5 47 9f bc e7 4a 31 3c
       -0.085646965 0.035252184 -0.019443462 0.010821081
000040 e5 f4 08 be e3 24 e0 bd 92 4b 1b be 8e bd 03 be
       -0.1337467 -0.109445356 -0.15165547 -0.12865278
000050 8e 4e 19 3e b3 03 8a 3d fd 24 2b be 08 01 ff bc
       0.14971372 0.06738987 -0.16713329 -0.031128421
000060 f7 6e 68 3c 36 66 c1 3d a5 a2 29 3e 32 90 35 3d
       0.014186612 0.09443323 0.1656595 0.04432697
000070 c4 04 ff 3d 4a 24 84 bd be 32 88 bb e2 06 d7 bd
       0.12452081 -0.06452234 -0.0041564396 -0.1049936
000080 fc 35 1f 3d f4 14 27 3e 38 41 e0 3d 97 73 32 3e
       0.038869843 0.16316587 0.109499395 0.17426907
000090 65 0a a6 bd 39 12 c4 bc 0c c9 0d 3d d6 a2 0f 3e
       -0.08107451 -0.02393447 0.03461556 0.1402696
0000a0 fa e9 27 be 17 8a b5 bd 86 05 c3 3c b4 07 d5 bd
       -0.16397849 -0.08864229 0.023806345 -0.1040186
0000b0 89 72 83 3d d5 0c 60 bc 49 16 43 bd 31 65 be 3d
       0.0641833 -0.013674934 -0.047628675 0.092966445
0000c0 26 a7 ff 3d 09 95 2e 3e 09 16 a2 3d e6 50 da bb
       0.12483053 0.1704904 0.07914359 -0.006662476
0000d0 a8 52 12 3e 3d 87 0e 3e 76 79 b7 bd 02 2d a1 3d
       0.14289343 0.13918777 -0.08958714 0.07869913
0000e0 85 ae a9 3c 6b 74 9c bd 3b 8e 32 bd 5b 38 31 bd
       0.0207131 -0.076393925 -0.043592673 -0.043266635
0000f0 c1 54 fd bd 65 69 64 bd ab 8f 6d 3d a2 55 03 3e
       -0.12369681 -0.055764575 0.05799834 0.12825635
000100 4a 6c 78 3c 1e 4a 2f be 4e 4c c3 3d 0f ef 53 bd
       0.015162537 -0.17118117 0.09536038 -0.051741656
000110 c7 67 23 3e 3c 28 2d be d8 51 22 bd b4 25 0e 3e
       0.15957557 -0.1690988 -0.039628834 0.1388157
000120 50 30 a0 3d 21 15 b1 bd a9 f8 1a be 5f 26 2a b9
       0.07821715 -0.08646608 -0.15133919 -0.00016226758
000130 0b 65 8f 3d 65 7d 14 be 88 b0 15 be 41 09 03 ba
       0.07001694 -0.14500959 -0.14618123 -0.00049986324
000140 be 5a 0d bd 07 36 ec 3d 9b 0f 2e be 80 32 d8 bc
       -0.034510367 0.115337424 -0.1699814 -0.026391268
000150 47 7c 0a be 4c a0 c4 bc 46 f7 b5 bd e0 dd 6a 3d
       -0.1352397 -0.024002217 -0.08885054 0.057340503
000160 a6 6c 17 be ba 64 0e be 90 df c9 bd 2f be 1c be
       -0.1478754 -0.13905612 -0.09857094 -0.15306924
000170 ec 87 e4 3d 61 24 c1 bc 78 8e c5 bd 40 9f 00 3e
       0.111587375 -0.023576917 -0.096463144 0.12560749
000180 79 85 2b bd a9 3b bb 3d f9 b3 67 bd 06 3f 19 be
       -0.041875336 0.09142239 -0.05656812 -0.14965448
000190 2a ee 17 3d 51 d9 dd 3d 46 4c 32 be a2 46 88 3c
       0.037092365 0.108324654 -0.17411909 0.016635243
0001a0 de 20 09 3d de c5 97 3c ac 13 c9 bb 17 52 68 bd
       0.03347861 0.018526968 -0.0061363783 -0.056718912
0001b0 69 55 0e be 33 c5 dd 3c a3 c4 f6 bd 0f 5d 17 be
       -0.13899769 0.027071571 -0.12049224 -0.14781593
0001c0 0a b7 6f bd 94 61 fb bd f4 57 58 3d 42 42 fe 3d
       -0.05852417 -0.12274471 0.052818254 0.124149814
0001d0 ae db 0a 3e 5c 05 e4 bd fc 4c c2 3d 4f ad fd 3d
       0.13560364 -0.11133835 0.0948734 0.123865716
0001e0 d4 f3 01 3b 53 bb 98 3d c6 36 c9 3d fa b4 08 3e
       0.001982917 0.07457604 0.098249 0.13350287
0001f0 db b4 c1 3d cd ec 96 3d 84 fd 8c bd 99 77 cd bd
       0.094583236 0.07369385 -0.06884292 -0.10032577
000200 32 27 ab bd 74 ee 14 3e ce fc 27 bd f1 87 04 3c
       -0.08357085 0.14544088 -0.041012578 0.008089052
000210 8c 13 27 be d5 fb 14 bc 72 79 4e bd e1 c6 ea bd
       -0.1631605 -0.009093245 -0.050408788 -0.114637144
000220 94 f1 0d 3e dc 87 13 be 00 f7 d5 bc 04 2f 46 bc
       0.13861686 -0.14407295 -0.026118755 -0.01209617
000230 0b 4d 24 be f5 80 de 3d 15 10 63 bd ec de a0 3d
       -0.16045015 0.1086444 -0.05543526 0.07855019
000240 95 bd cd 3d 18 5b 21 3e e5 e8 38 3d f3 d0 06 3e
       0.100459255 0.15757406 0.04514398 0.13165645
000250 0a f9 28 3e 42 e3 16 3d 65 52 0d bd 60 4e 4b bd
       0.16501251 0.036837824 -0.034502406 -0.04963529
000260 b3 99 ea 3c a5 47 82 3d 45 ea 28 be c8 60 09 3e
       0.028637743 0.06361321 -0.16495617 0.13415825
000270 0a 5a e4 3c 2e d5 29 be 86 f0 6e 3d 28 6e e9 3d
       0.027874965 -0.16585228 0.05833485 0.11397964
000280 28 2f 84 3d c6 c0 13 3e 7e df fe 3a 31 ef 17 be
       0.06454307 0.14429006 0.0019445268 -0.14837338
000290 73 bc 08 bb 68 00 05 3e 12 3f b0 bd e8 66 98 3d
       -0.0020864278 0.12988436 -0.0860578 0.07441503
0002a0 93 cf 1f 3d b9 ff ea bc 08 e8 5e 3a 65 d9 96 3d
       0.039016318 -0.028686391 0.0008503203 0.073656835
0002b0 69 20 fa bd ce 0b e1 3d 0b cd f1 3d 2a 65 ca 3d
       -0.12213213 0.1098858 0.11806687 0.09882577
0002c0 10 21 33 3e 1e 47 1a bc 43 24 01 be 3f e1 0a 3c
       0.17493081 -0.00941637 -0.12611489 0.008476554
0002d0 dd f6 58 bd 6c 9a 78 3d d9 9e 17 3e 48 47 c3 bd
       -0.052969802 0.060694143 0.1480669 -0.0953508
0002e0 36 8e f2 3b 5b 0e 30 3e 3c 3f 12 be 4a 0f 04 bd
       0.007402207 0.17192976 -0.14281934 -0.032241143
0002f0 45 c5 2f 3e fb 7b ff 3d d6 0f 4b 3d 98 a4 9f bd
       0.17165096 0.12474819 0.04957565 -0.07795066
000300 8a 87 77 bc bf 50 22 be 97 da 28 be 26 00 28 be
       -0.015107999 -0.15851115 -0.16489635 -0.16406307
000310 de 25 2f 3e b1 5b 10 3e 76 33 92 3d af af 30 bd
       0.17104289 0.14097477 0.07138722 -0.043136295
000320 c0 36 1d 3e 9d 5c 3a bd 43 d0 fd 3d 91 05 8f bb
       0.15352917 -0.04549848 0.123932384 -0.0043646772
000330 ff a8 a7 bd f8 ae 43 bd 2e c9 14 bd 1a 71 24 be
       -0.0818653 -0.047774285 -0.036324672 -0.1605877
000340 08 b7 5e 3d 9e 51 57 bd 30 3d a7 3d dd 38 e9 3d
       0.05437377 -0.05256807 0.081659675 0.11387799
000350 19 1c da bc 55 a5 b2 3d da 43 13 3d e6 7e f5 3d
       -0.026624726 0.08722941 0.03595338 0.119870946
000360 fc 77 e9 bd d7 44 7e bc f0 17 6b bd b2 06 20 3e
       -0.11399838 -0.015519342 -0.057395875 0.15627554
000370 f7 78 22 be b5 24 c9 bd 73 64 ae 3c 9f 41 22 3e
       -0.15866457 -0.098214544 0.021288132 0.15845345
000380 9a 86 f8 3d 99 61 29 be 20 ee fa bd 95 4a 31 3e
       0.12135048 -0.16541137 -0.1225245 0.17313607
000390 53 3d e1 3c 23 48 19 be 79 fa 5c bd 5d d5 a1 3d
       0.027495062 -0.14968924 -0.053949807 0.07902024
0003a0 38 3f 10 bd 2a 43 09 be f9 f5 db bd ae f4 b7 bd
       -0.03521654 -0.13404527 -0.10740275 -0.08982216
0003b0 66 cc a9 bb cb 6e 91 3d f3 66 b1 3d 5b 4f ac bd
       -0.005181837 0.0710121 0.08662214 -0.08413573
0003c0 de 97 e4 bc 0c f9 09 be 59 55 0a 3e 1d 6a 36 3e
       -0.027904447 -0.1347391 0.1350912 0.17813917
0003d0 ef bb 31 3e 9a 8b 97 3d e4 1f 14 bd 1b 71 30 bb
       0.17356847 0.07399674 -0.036163226 -0.0026922885
0003e0 3e 9c 82 3d a5 e6 1c be ad 8a 50 3c ec 5c 11 be
       0.06377457 -0.15322359 0.012728375 -0.14195603
0003f0 6a fa 34 be 6f ff 88 bb 45 5b 5f bd d9 bb e1 bd
       -0.1767365 -0.0041808407 -0.0545304 -0.11022157

bias f4 [8]
000000 1c 0a ec 3c 51 64 af 3b 1d 32 eb 3c a9 3e ce bd
       0.028813414 0.005352535 0.02871042 -0.10070545
000010 18 e5 30 be d3 96 18 3b 2a da 90 bd a4 ef 6c bd
       -0.17274892 0.0023283258 -0.070728615 -0.057845727

weight f4 [32, 1]
000000 65 e5 3c 3f 7f 8f 27 3e 60 e8 e8 3e dc 14 8f be
       0.7378753 0.16363333 0.45489788 -0.27945602
000010 2e 1f 4b bf 0c c4 4d 3e c9 18 29 bf 8f 42 00 3e
       -0.7934445 0.20094317 -0.66053444 0.1252539
000020 9b 57 47 bf e9 88 40 3f 80 61 2e bf ac ab 5e 3f
       -0.7786805 0.7520891 -0.68117523 0.869807
000030 33 49 35 3f 68 0f 41 3f 7e 22 19 3f 49 42 6b 3e
       0.7081482 0.75414133 0.59818256 0.22974505
000040 94 a8 4e bd 98 3b 90 bc a9 b6 ca be 6d b0 6b bf
       -0.050453737 -0.017606542 -0.39592484 -0.9206608
000050 61 dc 68 3f c4 67 59 3d 2f e3 ef 3e a4 53 16 3d
       0.9096127 0.053077474 0.46853015 0.03670086
000060 b1 a1 93 3e 77 f4 1d bf 19 d5 46 bf 1e af 43 3f
       0.28834298 -0.6170115 -0.7766891 0.7643908
000070 49 54 c1 3e 22 e7 fb 3e b5 9c 7d bf 88 e3 86 3d
       0.37759617 0.49199778 -0.9906724 0.06586367

bias f4 [32]
000000 eb 53 6e bf 9b 97 e8 bd 18 dd 5f bd 5c 17 34 bf
       -0.930968 -0.113570414 -0.05465421 -0.70348144
000010 d0 7b 7d bf 91 29 06 3c 67 cb 65 3f 06 42 66 3f
       -0.9901705 0.008188621 0.8976349 0.89944494
000020 07 49 1c bf 70 b5 37 be 18 11 56 bf 6f 7b 47 bf
       -0.6104893 -0.17940307 -0.83619833 -0.7792272
000030 f1 74 8b be 8d f7 78 3f ca 80 86 be 39 e4 65 3d
       -0.27237657 0.9725273 -0.26270133 0.056125853
000040 d8 2f 71 3f 69 48 38 3e c6 27 4e 3f 1d 7d 2a 3f
       0.9421363 0.17996372 0.8052944 0.6659716
000050 ac 95 6f 3f f3 3a 31 3e 58 76 4f bf 0c 37 5c bf
       0.93587756 0.17307644 -0.81039953 -0.86021495
000060 74 02 04 bf 70 be 53 3f 9d 09 13 3f 4f c3 96 3e
       -0.51566243 0.8271246 0.57436544 0.29445884
000070 d2 58 43 bf ee fa 3c bf a7 50 51 3f cb 23 d8 bd
       -0.76307404 -0.7382039 0.8176369 -0.10553702

weight f4 [8, 32]
000000 b3 fc 35 be 2e 05 a6 bc 19 7c 26 bd fe bd 2e 3b
       -0.17772178 -0.020266142 -0.040645692 0.0026663537
000010 11 82 97 3d 9b fa 8e 3d 2f b6 08 be a1 73 24 b9
       0.07397855 0.06981393 -0.13350748 -0.00015683334
000020 bd e2 af bd 75 8b f8 3d f2 43 b3 3d 6f 2a c3 3d
       -0.08588169 0.12135974 0.08753194 0.09529578
000030 77 64 26 3e 6c 7f b5 3d f9 0e 33 be 13 0c 3e 3d
       0.16249262 0.088621944 -0.1748618 0.046398234
000040 59 c6 f4 bd df ec cf 3c 9a 49 6f 3b 30 4b 35 3e
       -0.11951894 0.025381504 0.0036512376 0.17704463
000050 3d a9 f3 bd 72 84 2f be 72 09 49 bd 81 59 e9 3c
       -0.11897514 -0.17140368 -0.049081273 0.028485062
000060 7a de 02 3e 39 8e 14 3e 16 2b 0d 3e 4e eb 6b 3d
       0.1278018 0.14507379 0.13785967 0.05759745
000070 3e af 55 bd 69 18 20 bd 26 72 c2 bd a6 9e 06 3d
       -0.052169077 -0.03908578 -0.09494428 0.032866143
000080 56 30 f8 bd 98 d4 7a 3d 07 fe e5 3d 4d 99 19 3e
       -0.12118594 0.0612379 0.112300925 0.14999886
000090 fc 69 32 be d9 9b 12 3e d0 2a e7 bd 7a 73 85 bc
       -0.17423242 0.14317264 -0.11287463 -0.016290415
0000a0 3f e8 26 3e 55 61 c0 3d c1 aa 65 bd 9d 4a d9 3d
       0.16299532 0.093935646 -0.056071047 0.106099345
0000b0 f0 f2 31 be 10 9b 0b 3e a2 d2 2d 3e 43 fa 21 bc
       -0.1737783 0.1363337 0.16974881 -0.009886327
0000c0 2d 1e df 3c 06 7f 31 bd 00 f6 e8 bd 54 67 a0 bd
       0.027236069 -0.04333403 -0.11375046 -0.07832208
0000d0 71 cd 5e bc 56 fd 15 be a4 85 10 be fc eb 9e 3c
       -0.013598786 -0.14647421 -0.1411348 0.019399635
0000e0 db 04 e8 bd 73 aa c8 bd e7 11 d8 38 03 98 c2 bd
       -0.11329051 -0.097981356 0.00010303017 -0.0950165
0000f0 c8 4b 29 3e 7b 40 7e bd 44 24 c6 bd b6 ca 39 bd
       0.16532815 -0.062073212 -0.09674886 -0.045359336
000100 53 71 15 be ab 01 b9 3d bf 37 1d 3e c1 c7 d0 bd
       -0.14594011 0.09033521 0.15353297 -0.1019435
000110 0b 94 86 bd 3b a4 2a 3e ca 2d 01 be 73 19 4b 3d
       -0.06571206 0.16664211 -0.12615123 0.049584817
000120 52 ba 11 be 3f 6d 1f be 54 3b 8c 39 b8 26 d2 bd
       -0.14231232 -0.15569018 0.00026747084 -0.10261291
000130 4d 58 c7 3d e9 00 59 bd d1 fd 58 3b 38 92 b9 bd
       0.09733639 -0.052979384 0.003311027 -0.09061092
000140 bb 46 98 3d 68 77 29 3e 2a 97 cb bc d1 ed db bd
       0.07435366 0.16549456 -0.024852354 -0.10738719
000150 86 cf 2e be d1 33 2f 3e 1b 18 95 3d 3b 82 95 3d
       -0.17071351 0.1710961 0.072799884 0.0730023
000160 eb 9c e8 3c 3d 2e b9 3d 70 11 84 3d 6b 35 b4 3d
       0.028395137 0.090420224 0.064486384 0.08799251
000170 ee fb de 3d 51 4c bf 3c f6 aa 1d 3e ed 9d dd 3d
       0.108878955 0.02335182 0.15397248 0.108211376
000180 d4 5d 72 bb 8c 13 a0 bd fd f7 22 3c f8 f8 0c 3e
       -0.0036982195 -0.07816228 0.00994682 0.13766849
000190 d4 54 e5 3d 6d 57 96 bd 95 58 1e bd 55 1b 8c 3d
       0.1119782 -0.07340894 -0.038658697 0.06841151
0001a0 ef d7 84 3d b2 8e 2a 3e 98 ca af 3d 4a b5 6d 3d
       0.064864986 0.16655996 0.085835636 0.05803422
0001b0 4a 2d 20 3d cd ef 2b be 6b eb 88 bd 5e b0 8a 3c
       0.03910569 -0.16790695 -0.066855274 0.016929802
0001c0 9a 77 ff bd 28 68 20 be 6c ad f0 3d eb 1d 6f 3d
       -0.12473984 -0.15664732 0.117518276 0.05837814
0001d0 cb e4 13 be 1f cc 0e 3c 10 ab d8 3d c2 8c d0 3d
       -0.14442746 0.008715658 0.105795026 0.101830974
0001e0 70 07 27 3e c3 bc 92 bd a6 a1 9d 3d e9 a7 14 be
       0.16311431 -0.0716491 0.076968476 -0.14517178
0001f0 50 05 a5 bc 36 c0 e2 bd c1 00 11 bd bd 90 d1 3d
       -0.020144135 -0.110718176 -0.03540111 0.10232685
000200 32 8c b1 3d b7 bb ba bd 27 1c 2c bd e4 d8 10 bd
       0.08669318 -0.09117835 -0.042019036 -0.035363093
000210 c7 b8 89 bd b9 97 c2 bd 44 c8 06 3e e2 f9 fd 3d
       -0.067246966 -0.09501595 0.13162333 0.12401177
000220 ba bb 16 3e ec 12 c3 bd f1 8c 04 3e 74 6c 61 bd
       0.1472005 -0.095250934 0.1294439 -0.05503507
000230 dd ab 22 bd 09 7e 3b bd dd 3f de bb 5c d0 9a bd
       -0.039714683 -0.045774493 -0.0067825154 -0.07559273
000240 c6 03 d5 3c c2 96 e5 bd d5 a6 98 3d 2f 2c 18 be
       0.026002776 -0.112103954 0.07453696 -0.14860605
000250 81 0b 7f bd 56 1e f9 bd eb 50 f1 3d 5b b9 f8 3d
       -0.06226683 -0.12163989 0.11783012 0.12144729
000260 b9 68 11 be a5 cf c1 bd 41 a0 21 3e 4d 69 5a 3d
       -0.14200105 -0.09463433 0.15783788 0.05332308
000270 9b 74 f6 3d 8f 3a 0c be 05 f2 a2 3d e6 8d e3 3d
       0.120339595 -0.13694213 0.07956318 0.11111049
000280 90 78 2b bd 67 67 20 bc 57 58 02 3e 33 6e 45 3d
       -0.041863024 -0.009790278 0.12729011 0.048200797
000290 f6 bf 4f 3d c5 2e 8c ba 33 9a 9a bd b1 f0 e0 bd
       0.050720178 -0.0010695091 -0.075489424 -0.10983408
0002a0 ad dc 32 3e 7c 1a 7f bc 02 a2 20 3e 1e 48 13 3e
       0.17466994 -0.015570279 0.15686801 0.1438298
0002b0 3a 9a c0 bd 51 6e 2a 3c dc c9 3f bd 4c aa 9d bb
       -0.094044164 0.010402278 -0.046823367 -0.0048115607
0002c0 5e 37 eb 3d eb f6 c3 3d 16 0d d1 bd 9e ae b6 bd
       0.1148517 0.0956858 -0.10207574 -0.08920024
0002d0 d2 3b 02 be 35 5b 1b be 02 51 e6 3d af b2 df bd
       -0.12718132 -0.15171511 0.1124592 -0.10922753
0002e0 9c ae b1 3a 1a 57 fd ba 4a 86 e9 3c 3b b9 43 bc
       0.0013556066 -0.0019328326 0.028506417 -0.011946018
0002f0 1b d1 b9 3d 6d 98 bf 3c 73 06 00 3e 05 a5 18 3d
       0.09073087 0.023388112 0.1250246 0.03726675
000300 78 6a fa b9 90 f3 bf 3c c2 bc ed 3d 46 90 da 3c
       -0.0004776304 0.02343157 0.11608268 0.026680123
000310 c1 08 ff 3d dd 8e 97 bc ed 35 72 b9 8a 48 16 3e
       0.124528416 -0.01850074 -0.00023099007 0.14676109
000320 60 ac 2c be 79 46 82 3c 0b 54 25 3e 66 1d b2 bd
       -0.16862631 0.015902745 0.16145341 -0.086970136
000330 de a2 0c bd d7 08 4b bc 0b 7a 67 3d 4f 46 85 3d
       -0.03433501 -0.012392244 0.056512874 0.06507551
000340 36 d9 1c 3d b9 37 8b 3d 02 ee 9e bd 41 bb 94 3d
       0.038293086 0.06797738 -0.0776024 0.07262278
000350 7d b5 6c bd 9a e3 df 3d 01 83 4d bd a0 21 1a be
       -0.05779027 0.109320834 -0.050173763 -0.1505189
000360 60 b2 6a 3c 4d c3 b8 3d 02 16 0e bc e5 a2 11 3a
       0.0143247545 0.09021626 -0.008672239 0.0005555584
000370 0f 5c 16 3b 80 a7 c3 3d 30 ea 45 3c 1d f4 1f be
       0.0022943055 0.095534325 0.01207976 -0.15620466
000380 22 c5 02 be fa 2e 47 3c f0 56 4c bc 06 05 2d 3e
       -0.12770513 0.012157196 -0.012471899 0.16896448
000390 79 34 2a bd c0 4b 0c 3e 10 e2 16 be f0 42 2a be
       -0.041553948 0.13700771 -0.14734674 -0.16627097
0003a0 97 2f 6e bc 4e b2 e1 bd 92 25 53 bd 86 aa 95 3c
       -0.0145377135 -0.11020337 -0.0515495 0.018269788
0003b0 8a 3f 1b be 9d 4e fc 3d 7e 30 d8 bd fe a5 0c 3e
       -0.15160957 0.12319682 -0.10556124 0.13735196
0003c0 91 c4 73 3d 45 af 00 bd ac a2 1c be 29 d2 fd 3c
       0.059513632 -0.03141715 -0.1529643 0.030984001
0003d0 ca b5 c6 bd 7e 36 1e 3e c6 f2 19 be c6 41 3f bd
       -0.09702642 0.15450475 -0.15034017 -0.046693586
0003e0 49 dc ca bd 32 49 e5 bd 2e 48 b9 bd dc 6d 81 bc
       -0.09905297 -0.111956015 -0.0904697 -0.015799455
0003f0 25 7a 29 3c 96 de e7 3c 94 87 bc 3d 7c 33 97 bd
       0.010344063 0.02830438 0.09205547 -0.07382867

bias f4 [8]
000000 04 fa dc bd 70 28 20 bd 8e 54 2c 3e f6 6a bf bc
       -0.10789874 -0.039101064 0.1682913 -0.023366433
000010 7b 83 16 be 8d 58 0c 3e da ff 28 3d f1 c1 04 3d
       -0.14698593 0.13705654 0.041259624 0.03241152

weight f4 [32, 1]
000000 d0 c1 2f 3e 64 24 32 3f a6 1f e9 be 04 fc 3a 3f
       0.17163777 0.6958678 -0.45531958 0.73040795
000010 cb 9a 76 3f 52 03 84 be a0 02 22 3f a9 c7 0c 3f
       0.96329945 -0.25783783 0.63285255 0.5499216
000020 94 45 6f 3f e8 4f 6e be c1 bb 18 bf ae 54 bd be
       0.9346554 -0.2327267 -0.5966149 -0.36978668
000030 64 9e 2e bf 7a 83 0c 3d 67 5c 76 3f 3a e4 77 3f
       -0.68210435 0.034305073 0.96234745 0.9683262
000040 9b cd 41 3f ca ce c9 3d e8 42 c0 3c 9a 14 29 3f
       0.75704354 0.09853895 0.023469403 0.6604706
000050 07 9f 17 3f 42 39 cb bd 52 7c 81 be d8 55 cb 3e
       0.5922703 -0.099230304 -0.2529016 0.3971393
000060 32 00 11 bd 7a 5f 33 bf f3 b6 f1 be c7 0b 50 3f
       -0.035400577 -0.7006756 -0.47209892 0.8126797
000070 d7 9b 55 3f 26 50 c8 be 53 96 5d be 8b db fc be
       0.8344092 -0.39123648 -0.21639375 -0.49386248

bias f4 [32]
000000 32 25 a7 be ea d0 69 3f c4 ac 63 bf 37 2f f5 3e
       -0.32645565 0.913344 -0.88935494 0.47887585
000010 b4 a0 65 bf 28 42 f4 be b0 a6 4e be 31 50 8a 3d
       -0.8969834 -0.47706723 -0.20180774 0.067535765
000020 0e 1c 28 be 7c 07 ea be b6 72 e3 be 30 0e 1c bf
       -0.16416952 -0.45708835 -0.44423455 -0.6095915
000030 b3 38 32 bf 04 7c 1f bf b8 ef 75 3f 39 22 f2 be
       -0.69617766 -0.6229861 0.96068907 -0.47291735
000040 b8 6e 54 bf f4 7f 2f 3f 0c b0 c5 3e e8 a2 2f 3f
       -0.82981443 0.68554616 0.38610876 0.6860795
000050 b9 01 7f bf 2a ab 73 bf 68 af 35 bf 3b 68 06 bf
       -0.99612004 -0.9518305 -0.70970774 -0.52502793
000060 6a 22 ca ba 82 86 dc 3e 10 53 16 3f 37 bb 5b bf
       -0.0015421633 0.4307137 0.58720493 -0.8583254
000070 2e 0d cd 3e 38 a1 13 bf 53 37 6d 3e bd d9 9f 3e
       0.40049118 -0.57667875 0.23165636 0.3122081

weight f4 [8, 32]
000000 ff bc e7 3c 37 af 83 3d 25 9c 10 bc 5f 95 f2 3d
       0.028288363 0.06429904 -0.00882629 0.118448965
000010 f0 f8 1d 3d 94 94 1e 3e de 12 24 3d 89 0f bc bd
       0.038567483 0.15486366 0.040057056 -0.091826506
000020 49 0e ec 3d ae e6 1c 3c 3c c0 30 3e 5e 12 93 bc
       0.11526162 0.009576483 0.17260832 -0.017953094
000030 cb e9 34 3e 33 55 d3 bd e4 89 b9 3d 8d 44 05 be
       0.1766731 -0.10318985 0.09059504 -0.13014431
000040 f5 ff fb 3d 8e aa 0a 3d 9d 26 d1 3d a2 15 1a be
       0.12304679 0.03385406 0.10212443 -0.15047315
000050 c6 91 32 be 1b 6f ae 3d 6d f0 94 bd 33 cf 92 3d
       -0.1743842 0.085172854 -0.0727242 0.07168426
000060 8a 27 d3 bd 8e 93 58 bd 6f e5 27 3b 7e 79 dd 3d
       -0.10310276 -0.052875094 0.002561893 0.108141884
000070 29 05 d0 3d 26 2c 67 bc e5 8a 45 bd a8 d8 a9 ba
       0.10157234 -0.014109647 -0.048228163 -0.0012958245
000080 ef 95 ba 3d 69 48 1b be 3d 3d 5d bd 1d 59 30 be
       0.09110629 -0.15164341 -0.05401348 -0.17221494
000090 aa 81 c2 3c 82 48 ab bc 28 68 c9 3d 0f c0 0e 3e
       0.02374347 -0.020908598 0.09834319 0.13940452
0000a0 ee 9c 1c be 30 37 a0 bd 50 e0 f7 bc 69 b2 61 bb
       -0.15294239 -0.07823026 -0.030258328 -0.0034438616
0000b0 f5 bf 2c bd 31 9e e3 bd e0 9b 8f bd 88 9f cf bb
       -0.042175252 -0.11114157 -0.07012153 -0.0063361563
0000c0 ce bf 0f 3e ca 08 40 bd 3e 51 eb 3d 6e 2e 14 be
       0.14038011 -0.046883382 0.11490105 -0.14470837
0000d0 24 93 d3 3b 44 41 0d be 7a da 29 be 88 4c 81 3c
       0.0064567495 -0.13794428 -0.16587248 0.015783563
0000e0 8c 89 a9 bd c6 60 03 3e f0 16 0d 3e ea f9 35 be
       -0.08278188 0.12829885 0.13778281 -0.17771116
0000f0 c4 82 67 bc f7 64 02 bd ca 1b d2 bd e7 40 00 be
       -0.014130298 -0.03183457 -0.102592066 -0.12524758
000100 d4 32 99 bd 6f 5a a3 3d ac 26 2c 3d ea 63 dd 3d
       -0.07480398 0.07976233 0.042029068 0.10810073
000110 2d f9 10 bc 53 06 bc 3d 7a 07 13 3d 0a db 16 bd
       -0.008848471 0.09180894 0.035895802 -0.036829986
000120 c5 3c 0d bc 78 a0 24 be 5e ce 16 bb 0b a4 67 bd
       -0.008620446 -0.16076839 -0.0023011188 -0.056552928
000130 d8 1f 6b bd 5c 67 91 bd 03 46 17 bd 07 e4 03 be
       -0.057403415 -0.07099792 -0.036932003 -0.12879954
000140 c4 8d 45 3c 1b a7 b2 bb 0d 99 37 bd a3 e2 1e 3e
       0.012057725 -0.0054520494 -0.044823695 0.15516143
000150 3d f9 f5 3d 69 7b 4c 3d eb 56 85 bd 03 54 c6 3c
       0.12010429 0.04992238 -0.06510719 0.024209982
000160 9e 80 f5 bd 4a d1 ff 3d 7d d9 2a 3e 83 64 ca bc
       -0.119874224 0.124910906 0.16684528 -0.02470613
000170 95 59 0d 3e 55 90 2b 3e 75 7f 11 bc 09 dc 82 bd
       0.13803704 0.16754277 -0.008880486 -0.063896246
000180 fb 29 12 3c f8 ea e0 3c 36 8e 27 be 8f 61 51 bc
       0.008921142 0.027455792 -0.16362843 -0.012779607
000190 d4 6b 86 bd db 92 f1 3d 6a 93 df bb 12 97 ea 3d
       -0.06563535 0.117955886 -0.006822993 0.114545956
0001a0 6d 36 1f 3e f9 e8 62 bd 65 9c 14 3d 5b 8b 88 bc
       0.15548106 -0.05539796 0.036281962 -0.016668012
0001b0 2f 62 a1 bd bf d2 c8 bd 83 14 19 3b 43 de 54 3d
       -0.07880055 -0.098058216 0.0023358173 0.051969778
0001c0 62 5d 06 bd de 7d e7 3c af a0 de 3d 77 53 93 3d
       -0.0328039 0.02825826 0.10870492 0.07193654
0001d0 5c 3a 92 3d 04 7b 4b 3d 4a 25 0b be bc 7e de bd
       0.071400374 0.049677864 -0.13588443 -0.108640164
0001e0 b4 09 08 be 8d 4a ea 3d d9 3a 21 be e6 e4 08 be
       -0.13284951 0.11440001 -0.15745105 -0.13368568
0001f0 35 d2 ea 3d 4e 95 d2 3d 48 ea 2c be 74 93 cd 3d
       0.11465875 0.10282384 -0.16886246 0.1003789
000200 95 35 25 bd 79 18 1f 3d fe c7 e2 bd 86 78 d3 bc
       -0.040334303 0.0388417 -0.11073302 -0.025814306
000210 1e 1f 21 3d 8e 04 0a 3e 84 1c dc 3d 06 55 c3 bd
       0.039336316 0.134783 0.107476264 -0.09537701
000220 7a b6 ec bd c6 3d 30 bc a1 d0 66 3d 17 83 c9 3d
       -0.11558242 -0.010756915 0.056351308 0.098394565
000230 dd 48 33 be d6 aa 6c bc 48 3c e7 3b 05 af a8 bd
       -0.17508264 -0.014445027 0.0070567466 -0.08236507
000240 eb c4 0e 3e c2 29 3d bd ed cf 2b be b7 84 d6 bd
       0.13942306 -0.0461824 -0.16778536 -0.10474532
000250 c1 b7 b5 3b 9b b3 06 be de 60 25 3d 41 05 30 3e
       0.005545587 -0.13154452 0.040375583 0.17189504
000260 e5 ac 00 3c be 75 2f bd 57 4d 2b 3e b6 a5 05 3e
       0.007853721 -0.042836897 0.16728722 0.13051495
000270 0c 87 f2 3d f5 dc 72 3c e1 a2 10 3c 0a a6 0b be
       0.118421644 0.014823188 0.008827896 -0.13637558
000280 a6 67 93 3c 59 a3 2e 3e 96 1a 19 3c c8 09 23 be
       0.01799376 0.170545 0.0093447175 -0.159217
000290 cc 98 c3 3d d4 72 22 3e 9d 33 16 3e 28 f7 df 3b
       0.09550628 0.15864116 0.14668126 0.0068348832
0002a0 e0 d7 01 3d ac 57 ea 3c 78 78 96 bd f5 36 d9 bc
       0.031700015 0.028606258 -0.07347196 -0.026515463
0002b0 6a 91 12 3e a2 bc 93 3c 03 23 29 3e 48 7e f3 bd
       0.14313284 0.018034283 0.16517262 -0.118893206
0002c0 c2 f6 df bc de 20 62 3a df e1 d9 bd 67 4c 0a 3e
       -0.027339343 0.00086261134 -0.106387846 0.13505708
0002d0 64 23 fa 3d 26 46 c3 bd 54 77 1f 3e 60 42 27 3e
       0.122137815 -0.09534864 0.15572864 0.16333914
0002e0 de 82 d6 bd 3b 91 e3 bb aa 70 33 3e 60 1c ee bd
       -0.1047418 -0.006944803 0.17523447 -0.11626506
0002f0 2f 09 ef bc 26 6d fa bd 89 ae 01 3e 71 c8 e3 3c
       -0.029179184 -0.1222785 0.12664236 0.027805539
000300 34 b5 96 3d c0 20 00 3e c7 c1 e5 bc d2 9e 36 be
       0.073587805 0.12512493 -0.028046502 -0.17834023
000310 7f cc 04 3c df 20 60 bc f5 a9 80 3d 4f e1 a5 3d
       0.008105396 -0.013679712 0.06282417 0.08099615
000320 87 d6 b6 bd 2c 99 8e bd f2 8e e0 3d 6f 1d 49 3d
       -0.089276366 -0.06962809 0.10964765 0.049100336
000330 e7 a8 1e 3d 15 2f a1 3d 89 de a4 3d c1 03 04 be
       0.038735297 0.07870308 0.08050258 -0.12892057
000340 5a ce 63 3c 24 d7 77 3c 73 aa 30 be f0 b4 12 3d
       0.0139041785 0.015126977 -0.17252521 0.035817087
000350 8b f1 ec ba 33 67 0c 3e ec c5 2c be c3 d8 2a 3e
       -0.0018077357 0.13711242 -0.16872376 0.1668425
000360 5b d9 b4 bd ce 98 d1 3d bb e3 03 3e 77 27 b6 bc
       -0.0883052 0.10234223 0.12879841 -0.022235615
000370 de 85 bc bd c3 61 fd bc cf 72 e5 bd a6 49 a4 3c
       -0.09205221 -0.030930405 -0.112035386 0.02005465
000380 75 2c 98 3d 44 42 1b 3d 18 7a d0 bd 3b 94 c8 3d
       0.074303545 0.037904993 -0.101795375 0.09793898
000390 32 7b 27 3e 39 4c 5c bd 91 ab be 3d 1b 73 29 bc
       0.16355589 -0.05378363 0.093100674 -0.010342385
0003a0 91 96 94 3d 93 17 01 be a4 c3 1b be 08 a1 9f bb
       0.07255281 -0.12606649 -0.1521135 -0.0048714913
0003b0 cf 87 19 be d2 68 82 3d 68 db 2a 3e a8 90 08 bd
       -0.14993213 0.06367649 0.1668526 -0.03334108
0003c0 03 4d 46 3b 7f 96 e6 3c b3 64 ac bd 24 4b fb bb
       0.0030258305 0.028147934 -0.08417644 -0.0076688696
0003d0 4d 3d 3e 3d b0 61 12 3e 74 2c 16 be a3 bf 11 bb
       0.04644518 0.14295077 -0.14665395 -0.0022239469
0003e0 f8 f3 13 be 5b 0d 75 bc d9 82 73 bb 16 3d 94 bd
       -0.14448535 -0.0149567975 -0.0037156849 -0.07238214
0003f0 e6 c7 e0 3d 23 a7 f7 3d c3 99 8a bd 38 1b c4 bc
       0.109756276 0.12092426 -0.06767609 -0.02393876

bias f4 [8]
000000 d0 aa 56 bd 95 bc 3f 3b 2c c0 75 3d 03 8c 25 3e
       -0.052408993 0.002925669 0.059997723 0.16166691
000010 3d 43 25 be 00 a6 90 3d 5a a6 dd bd 7a 8e 12 be
       -0.1613893 0.07062912 -0.10822745 -0.14312163
